data/motion_priors/task_agnostic_policy_motor_decoder.pt (torch, 669079 bytes, 6 tensors)

_model.0._model.0.weight f4 [256, 333]
0.10520955 0.06751931 0.082165964 -0.05075123 0.09498185 -0.12302171 0.05048341 0.06503356
-0.0048216935 -0.008766431 -0.0075958725 -0.09139287 0.09298534 0.15527917 -0.08947807 0.17950906
0.048275232 0.089433536 -0.06886096 0.10313798 -0.07728455 0.053635087 0.012903213 0.042697407
0.055631623 -0.05429094 -0.032175448 0.14117332 -0.012010526 0.029087998 0.1908322 0.02509226
0.043528687 -0.0888515 0.14138374 -0.16088745 -0.050920613 0.059075534 -0.06673373 0.010883161
-0.099923916 -0.111166835 -0.014068136 -0.009505769 -0.0012067072 0.0336996 -0.067287095 0.039149046
0.077465236 0.21499057 -0.14669159 -0.04666918 0.06227738 0.009525326 0.08736734 -0.027025655
-0.096264094 -0.019871736 -0.061426528 0.014542892 0.10668687 0.06516925 -0.025959028 0.06904051
0.09967175 -0.11921229 0.08263573 -0.0028635063 0.05897821 0.06881784 -0.043512616 -0.1289703
0.019040162 0.13262591 -0.10565067 0.09306076 0.0023490128 0.03263602 -0.007471148 0.11635233
-0.11551643 -0.0024281417 0.060935978 -0.04207112 -0.008944824 -0.123612165 -0.23293786 -0.08915449
0.08750449 0.037243564 -0.032115765 -0.06103953 0.022771772 0.060502023 0.004748066 -0.028591204
0.04646595 0.029807804 0.024565691 -0.032539297 -0.09419581 -0.16005139 -0.014525409 -0.011418444
-0.06412444 -0.06551844 0.0521935 0.27559796 0.123728774 -0.014661417 -0.054556914 0.012489791
-0.029665597 -0.053880997 0.01833687 -0.018820228 -0.14067173 -0.039682433 -0.030664923 -0.04629106
-0.01472756 -0.045028467 0.07025628 -0.0035515642 -0.027391054 -0.10101461 0.015770946 -0.022005066
-0.08507354 -0.10572254 -0.11063535 -0.12180322 -0.11192667 -0.19399895 0.05709554 0.03575043
0.02088649 0.15200104 -0.012528805 -0.013187765 0.0414183 -0.01594004 -0.027807498 0.042245895
0.023595607 -0.01468791 -0.077271655 -0.028076561 -0.11256736 0.06575317 0.097185746 -0.04230613
0.120571874 -0.029420009 0.025014414 -0.057355378 -0.074904025 -0.100868925 0.032570474 -0.01357043
0.0340775 -0.14654458 -0.08779026 0.016639642 -0.058482032 -0.0073963883 0.016934017 -0.037209377
0.119476005 -0.04646868 -0.06417614 -0.0005908288 0.023800576 -0.0024069755 -0.010070545 -0.025094628
0.11263848 -0.07803036 -0.05530969 0.018788535 0.027085558 0.063030526 0.004302109 -0.091972165
0.08781789 -0.0027694714 -0.029340051 0.016555386 0.0007425733 0.061828442 0.022376137 0.12127095
-0.017199766 -0.0688461 -0.034110665 0.093570784 -0.006283289 0.048293788 -0.023384204 0.06290408
-0.06290657 0.01753028 -0.04062641 0.017345425 0.13579659 0.059387013 0.058975976 -0.017840806
-0.016319495 -0.049199086 -0.021135673 -0.061008286 -0.0057533733 -0.106654555 0.051271174 0.027073152
0.04598262 0.0015570198 -0.106555216 0.04096764 -0.13909768 -0.10996675 0.017441556 0.112874195
-0.06754895 -0.07945471 -0.043222822 -0.06776663 -0.025101552 0.15912902 -0.015977776 -0.005825658
-0.060286257 -0.042091433 0.048471633 -0.2608209 -0.12107212 0.009902257 -0.06265959 0.03663464
-0.15813133 -0.06354105 -0.054641005 0.013267328 0.05391693 -0.058041774 0.03237191 0.01911503
0.03759571 0.030278139 -0.06984634 -0.08393989 -0.104389735 -0.0135479085 -0.0499441 -0.07276505
00000000: 1b78 d73d 9047 8a3d a146 a83d 86e0 4fbd
00000010: d885 c23d cef2 fbbd b1c7 4e3d 5130 853d
00000020: 4cff 9dbb 14a1 0fbc cce6 f8bb 2f2c bbbd
00000030: 196f be3d 8101 1f3e 4740 b7bd 39d1 373e
00000040: 40bc 453d ee28 b73d fa06 8dbd 013a d33d
00000050: 5d47 9ebd 77b0 5b3d ff67 533c 7ae3 2e3d
00000060: fcdd 633d 2d60 5ebd 67ca 03bd bd8f 103e
00000070: ccc7 44bc f449 ee3c 8469 433e 498e cd3c
00000080: 234b 323d c6f7 b5bd e6c6 103e aebf 24be
00000090: 2292 50bd 30f9 713d b2ab 88bd 494f 323c
000000a0: e9a4 ccbd 70ab e3bd 0a7e 66bc 16be 1bbc
000000b0: 602a 9eba 9708 0a3d d1cd 89bd c05a 203d
000000c0: 18a6 9e3d 7d26 5c3e 5236 16be 2f28 3fbd
000000d0: 9116 7f3d 1d10 1c3c a6ed b23d e864 ddbc
000000e0: 1c26 c5bd 0dca a2bc 629a 7bbd 4f45 6e3c
000000f0: a57e da3d 7577 853d 07a8 d4bc 1c65 8d3d
00000100: b420 cc3d 9325 f4bd ec3c a93d aaa9 3bbb
00000110: 2393 713d 5ef0 8c3d 493a 32bd ca10 04be
00000120: 1dfa 9b3c 16cf 073e 615f d8bd a496 be3d
00000130: e5f1 193b 59ad 053d 88d0 f4bb 214a ee3d
00000140: e193 ecbd 7521 1fbb 0198 793d c452 2cbd
00000150: 508d 12bc 6028 fdbd 4387 6ebe a196 b6bd
00000160: 8e35 b33d b58c 183d d28b 03bd 9604 7abd
00000170: de8b ba3c f8d0 773d aa95 9b3b 1a38 eabc
00000180: 1453 3e3d 7f2f f43c fd3d c93c ed47 05bd
00000190: bce9 c0bd 83e4 23be fbfb 6dbc 6d14 3bbc
000001a0: ad53 83bd 882e 86bd dac8 553d 2d1b 8d3e
000001b0: 8365 fd3d 7136 70bc 1277 5fbd fba1 4c3c
000001c0: 4405 f3bc 52b2 5cbd 3437 963c e12c 9abc
000001d0: 400c 10be 0c8a 22bd 0135 fbbc b29b 3dbd
000001e0: dd4b 71bc c56f 38bd 86e2 8f3d 5cc1 68bb
000001f0: 3463 e0bc bfe0 cebd 1232 813c f843 b4bc
00000200: 093b aebd 0f85 d8bd c994 e2bd f773 f9bd
00000210: cf39 e5bd a9a7 46be 03dd 693d 0b6f 123d
00000220: 251a ab3c 29a6 1b3e 9e45 4dbc 7f11 58bc
00000230: 3ca6 293d b094 82bc 8dcc e3bc 080a 2d3d
00000240: 934b c13c 8fa5 70bc 9a40 9ebd d100 e6bc
00000250: b789 e6bd 99a9 863d 5209 c73d 3149 2dbd
00000260: 63ee f63d 3b02 f1bc 07eb cc3c 79ed 6abd
00000270: 4867 99bd 5e94 cebd 9e68 053d 8256 5ebc
00000280: d994 0b3d c80f 16be 61cb b3bd dc4f 883c
00000290: db8a 6fbd 675d f2bb 35b9 8a3c dc68 18bd
000002a0: d6af f43d f155 3ebd c86e 83bd d9e1 1aba
000002b0: 6df9 c23c 59be 1dbb edfe 24bc 4093 cdbc
000002c0: 01af e63d 62ce 9fbd 6a8c 62bd 6aea 993c
000002d0: 88e2 dd3c 2616 813d b5f8 8c3b e75b bcbd
000002e0: ded9 b33d 0580 35bb 8c5a f0bc 299f 873c
000002f0: 40a9 423a d23f 7d3d 294e b73c e75c f83d
00000300: 86e6 8cbc 2fff 8cbd a0b7 0bbd 0aa2 bf3d
00000310: 0ce4 cdbb b5cf 453d 3b90 bfbc dbd3 803d
00000320: 29d5 80bd a99b 8f3c e167 26bd fe17 8e3c
00000330: 430e 0b3e cc3f 733d cb90 713d e226 92bc
00000340: 76b0 85bc fb84 49bd b824 adbc d3e3 79bd
00000350: cb86 bcbb b46d dabd b901 523d 84c8 dd3c
00000360: 4658 3c3d ea14 cc3a 9f39 dabd afcd 273d
00000370: 9f6f 0ebe 3f36 e1bd 98e1 8e3c 962a e73d
00000380: 1b57 8abd 27b9 a2bd 6a0a 31bd 3bc9 8abd
00000390: c5a1 cdbc b8f2 223e d3e3 82bc 29e5 bebb
000003a0: b9ee 76bd 1168 2cbd 318a 463d 518a 85be
000003b0: a9f4 f7bd 133d 223c ac53 80bd 340e 163d
000003c0: 2eed 21be cf21 82bd 3fcf 5fbd 355f 593c
000003d0: 00d8 5c3d 36bd 6dbd 6898 043d 2097 9c3c
000003e0: f6fd 193d dc09 f83c 990b 8fbd ade8 abbd
000003f0: 49ca d5bd 0cf8 5dbc 2f92 4cbd d805 95bd

_model.0._model.0.bias f4 [256]
0.028282126 0.020785825 -0.0019239967 0.014576158 0.005030892 0.006646627 0.0028958446 0.0033801242
0.017533578 0.012875499 0.024990242 -0.0010276395 0.0061359797 0.0039355755 0.01693957 0.0063402853
0.010272562 0.011691882 0.0027714784 0.0002501067 -0.0011706217 -0.0027711985 0.012215622 0.0012869907
0.007426309 0.0058289184 0.014560317 0.005366287 -0.0004914565 -0.001746504 0.0162587 0.02201265
0.017180491 0.008069175 0.01713782 0.0028526867 -0.0018702294 0.0048798467 0.005914419 0.018051948
0.012656657 0.013612313 0.012076902 -0.00013125817 0.013881139 0.022698058 0.010001607 0.012255412
0.019443177 0.013826003 -0.006615847 0.004538874 -0.0018758632 0.0104525285 0.011058871 0.009426824
0.0071741054 0.011421072 0.0065005426 -0.0039914665 0.014643091 0.012940509 0.008872724 0.008079329
0.009081048 0.007507464 0.012613121 -0.0014337833 0.0007290405 0.0039245896 0.009596631 0.0011332706
0.018907608 0.014911589 0.02084425 0.021018868 0.012080931 0.008446701 0.007360221 0.007361085
-0.0017597325 0.006374061 -0.0011290336 0.0021000772 0.0031610902 0.0077457963 0.015885504 0.014104606
-0.004430555 0.02076894 0.014720151 0.006440138 0.014919745 -0.0035852885 0.011852455 -0.00097096927
0.026466122 0.015732806 0.0020916173 0.006355806 0.013000396 0.001641479 0.0011270295 0.014800637
0.0031869768 0.01352305 0.00927752 0.0069189435 -0.006806873 -0.0057305614 0.016570674 0.0029423102
0.013474305 0.014247399 0.008048867 0.007271343 0.016456183 0.005561727 -1.6327387e-05 0.0031641503
0.01232048 0.0006132282 0.023845134 0.005332022 0.010839376 -0.0027606902 -0.003402097 0.022587728
-0.0021995124 0.0024017931 0.009411424 0.015635652 -0.0012255186 0.0058504553 -0.002794998 0.03624124
0.0058401227 0.010351931 0.02576184 0.011827839 0.01309131 0.007405712 0.011320155 0.0044419956
0.016243428 0.0073187654 0.009018304 0.017795462 0.009764622 0.0075134183 -0.0014522945 0.00903677
0.0090474645 0.005407471 0.011237916 -0.0044844598 0.017524555 0.01347472 0.014016909 0.0040759733
0.0054570697 0.015703095 0.011160439 0.016561925 0.008647608 0.008275343 0.00259248 0.021564815
0.01940816 0.015841458 0.020105975 0.014402769 0.013790151 0.012198078 -0.0061425287 0.0027465632
0.0038467157 0.010868739 0.015213639 0.0032250562 0.0038957077 0.0070824143 0.020758318 0.016648017
0.012000501 0.012207853 -0.006383278 -0.002022432 0.0033780555 0.0073623033 0.0023766188 -0.0023028597
0.007571438 0.00040572646 0.009297885 0.010506535 0.0062692305 0.008231055 0.018765477 -0.003159228
0.02200497 0.0070043136 0.0090161525 0.0014300754 0.011542959 0.014311587 0.011533148 0.0058935257
0.013640373 0.0022538092 0.014979292 0.0071858712 0.016203776 -0.00519782 0.009904812 0.0025614002
0.024409926 0.0028315086 0.024185864 0.005527799 0.007551275 0.007309076 0.0067597404 0.0082762195
0.0050119124 0.012453044 0.005544772 0.0047190227 0.0148118455 0.00028631435 0.01250026 0.008892852
0.008251963 0.010480416 0.006517619 0.012282016 0.0009326251 0.018591018 0.0070392983 -0.011570061
-0.004851966 -0.0005742166 0.020817354 0.0075084586 0.0013644738 0.007448061 0.012207107 2.207248e-05
-0.0032405574 0.008903524 0.016377045 0.006854928 0.0050326665 0.004415996 0.0048401332 0.014626823
00000000: ebaf e73c 0947 aa3c 9e2e fcba d6d0 6e3c
00000010: 2eda a43b f3cb d93b 36c8 3d3b 1385 5d3b
00000020: 94a2 8f3c c2f3 523c 56b8 cc3c dcb1 86ba
00000030: 5410 c93b 00f6 803b dac4 8a3c 2bc2 cf3b
00000040: 3f4e 283c 4f8f 3f3c b1a1 353b c120 8339
00000050: 8c6f 99ba ff9c 35bb 0824 483c 3eb0 a83a
00000060: 6558 f33b 8300 bf3b 658e 6e3c aed7 af3b
00000070: 16d5 00ba f3ea e4ba f730 853c df53 b43c
00000080: 1abe 8c3c 9334 043c 9d64 8c3c 24f4 3a3b
00000090: 7c22 f5ba 1fe7 9f3b becd c13b aee1 933c
000000a0: de5d 4f3c 2e06 5f3c 33de 453c 59a2 09b9
000000b0: b86d 633c 47f1 b93c c8dd 233c ecca 483c
000000c0: 4c47 9f3c 7686 623c bfc9 d8bb d6ba 943b
000000d0: 86df f5ba 1541 2b3c 4430 353c f772 1a3c
000000e0: c214 eb3b 731f 3b3c 8102 d53b d9ca 82bb
000000f0: 93e9 6f3c 6e04 543c e75e 113c 295f 043c
00000100: adc8 143c 2c01 f63b 44a7 4e3c c9ed bbba
00000110: 141d 3f3a d899 803b 303b 1d3c 408a 943a
00000120: 21e4 9a3c bd4f 743c 90c1 aa3c c32f ac3c
00000130: 19ef 453c 0864 0a3c 022e f13b 4235 f13b
00000140: d3a6 e6ba 80dd d03b 15fc 93ba 73a1 093b
00000150: 4b2a 4f3b 73d0 fd3b 5122 823c 0117 673c
00000160: 302e 91bb a023 aa3c ca2c 713c cb07 d33b
00000170: f271 743c 29f7 6abb cd30 423c a588 7eba
00000180: 7bcf d83c 16e2 803c 8413 093b 5d44 d03b
00000190: 9dff 543c e526 d73a d6b8 933a 5f7e 723c
000001a0: 99dc 503b c88f 5d3c bd00 183c 4eb8 e23b
000001b0: 300c dfbb 6fc7 bbbb 39bf 873c c6d3 403b
000001c0: 55c3 5c3c ec6d 693c 65df 033c 7244 ee3b
000001d0: 1ecf 863c 263f b63b ccf6 88b7 a25d 4f3b
000001e0: d7db 493c 0cc1 203a df56 c33c 3eb8 ae3b
000001f0: a397 313c b2ec 34bb b7f5 5ebb e609 b93c
00000200: b225 10bb 6767 1d3b 6032 1a3c 5716 803c
00000210: 95a1 a0ba 2db5 bf3b 492c 37bb b271 143d
00000220: 805e bf3b 259b 293c 7f0a d33c 8dc9 413c
00000230: ef7c 563c 9dab f23b 2c78 393c 298e 913b
00000240: f010 853c 41d2 ef3b 82c1 133c cac7 913c
00000250: cbfb 1f3c 1f33 f63b eb5a beba f60e 143c
00000260: d13b 143c 2831 b13b 3c1f 383c 60f2 92bb
00000270: a88f 8f3c 12c5 5c3c 2da7 653c be8f 853b
00000280: 38d1 b23b c7a3 803c 46da 363c e0ac 873c
00000290: b2ae 0d3c 4e95 073c 99e6 293b b2a8 b03c
000002a0: ddfd 9e3c f2c5 813c 49b5 a43c 97f9 6b3c
000002b0: 16f0 613c 73da 473c 4447 c9bb afff 333b
000002c0: 2e19 7c3b cc12 323c a042 793c 775b 533b
000002d0: 214f 7f3b 9913 e83b 590d aa3c 6c61 883c
000002e0: c09d 443c 7203 483c d12a d1bb c78a 04bb
000002f0: 5e62 5d3b 7a3f f13b 0cc1 1b3b 93eb 16bb
00000300: d319 f83b afb7 d439 2856 183c 9a23 2c3c
00000310: 1e6e cd3b 8cdb 063c 0fba 993c 0d0b 4fbb
00000320: c443 b43c 7184 e53b 7cb8 133c 5e71 bb3a
00000330: ae1e 3d3c 267b 6a3c 87f5 3c3c 7a1e c13b
00000340: df7b 5f3c a5b4 133b b46b 753c 7577 eb3b
00000350: c8bd 843c 7952 aabb cb47 223c 2add 273b
00000360: 53f7 c73c d590 393b 6f21 c63c 8a22 b53b
00000370: b070 f73b f980 ef3b d080 dd3b fb98 073c
00000380: f83a a43b da07 4c3c ebb0 b53b 08a2 9a3b
00000390: 62ad 723c 761c 9639 e4cd 4c3c 53b3 113c
000003a0: 3e33 073c 0db6 2b3c c091 d53b 823a 493c
000003b0: 697b 743a 314c 983c eaa9 e63b 5a90 3dbc
000003c0: 3efd 9ebb 0687 16ba 2889 aa3c 8409 f63b
000003d0: 25d8 b23a dd0e f43b 5100 483c 4a28 b937
000003e0: 885f 54bb 16e0 113c 2729 863c 4e9f e03b
000003f0: 11e9 a43b 0fb4 903b fb99 9e3b 58a5 6f3c

_model.1._model.0.weight f4 [256, 256]
-0.007904338 -0.00935679 0.052323245 0.030836495 -0.009501406 0.026486931 0.007972329 0.025776133
0.0027156146 0.054983564 -0.06009052 0.09475277 -0.05991893 0.08046131 -0.021073338 -0.10907475
0.040624037 0.06487295 -0.11187199 -0.10109154 0.048560914 -0.12744223 0.027072623 0.110970736
-0.07735452 0.091934636 -0.052739523 -0.097315595 0.09406402 0.11830091 -0.061979156 -0.057813615
0.036232386 -0.032475132 -0.013314382 -0.074718274 -0.0007393117 -0.042205982 -0.116353266 0.06869035
0.0484558 0.026429143 -0.072574645 -0.1810141 0.048694436 0.04274949 -0.03637586 -0.017185664
0.053438112 -0.07348777 0.074186526 -0.051449604 -0.008779842 -0.007369203 -0.089563206 -0.03558577
-0.022379912 -0.008308655 -0.090713575 -0.04890207 -0.0010294485 0.049589846 -0.030466 0.0075376127
-0.11224845 0.046680834 -0.08029071 -0.023230094 -0.055421136 0.016588075 -0.01994894 -0.05418547
0.07226834 0.010106497 -0.03536676 -0.02231658 0.16026784 0.030344907 0.09663324 0.0810244
-0.087326065 -0.10426263 0.075955324 0.16436578 -0.009548299 0.10022006 0.057853978 0.053364526
-0.002032017 0.013750283 -0.08303471 0.0010505533 0.031739082 -0.07625214 0.059740566 0.05019298
-0.028633472 0.006772193 0.03899121 0.05543436 -0.02837576 -0.048949327 0.013814255 -0.086453065
0.111014806 -0.03349141 0.09037231 -0.032893416 0.07312639 -0.013301908 -0.019656505 0.086090095
-0.024748728 0.021410633 0.029234083 -0.030952299 -0.111297935 0.10550131 0.09997255 -0.039301876
-0.040445607 0.00900844 0.007245035 0.029705938 -0.051831003 -0.03003006 0.08481648 -0.16107671
0.07643302 0.044108395 0.071839675 -0.019780634 -0.027761374 0.05139845 0.07992747 0.002249504
-0.0033216425 0.038828097 -0.07575735 -0.10189533 0.044224054 0.08509863 -0.087897666 -0.036236573
-0.015362217 -0.052033056 -0.00761232 0.078368224 -0.038926993 -0.021236379 0.06620624 -0.017588455
0.04317487 -0.050515395 0.05872101 0.04729415 -0.11037484 -0.05337609 0.10533265 -0.054942343
0.052952506 0.01077151 0.094713256 0.05590009 0.04560036 0.04647898 -0.089647815 0.068509474
0.061651982 0.05020594 -0.026613925 0.06189623 -0.026970297 -0.041254308 0.115289584 0.08356509
-0.05470294 0.035584476 -0.010306222 0.10024602 0.096621536 0.03437323 0.039885707 0.0040580006
0.031098366 0.015369046 -0.018233716 0.049516942 -0.033635657 0.12156379 -0.013637832 0.077380985
0.023927497 -0.015234164 -0.041416645 -0.04082126 0.07606949 0.061235312 -0.06986522 0.040868465
0.032407068 0.0020682043 -0.07213038 -0.022035861 0.015234158 -0.014072888 0.09178903 -0.003793219
0.1238505 0.17284471 -0.081547774 0.058442645 0.075663336 -0.12354198 -0.16872668 -0.06909611
0.035821 -0.02438927 0.039935224 -0.09052531 0.0045414176 -0.077229746 0.043127533 0.09872102
-0.099976905 -0.03822801 0.08937991 0.015875138 -0.0025560164 -0.031461786 -0.08055842 -0.12147713
0.006465867 0.08455068 -0.082395814 -0.026891848 -0.07249358 0.032296836 0.045372304 0.027262755
0.0721994 -0.045199923 0.064126685 0.059995938 -0.09663663 -0.015783371 0.0900448 -0.07224473
0.00085063383 0.06749369 0.004601947 0.12315537 0.070246466 0.07478836 -0.07070776 -0.026110632
00000000: 3281 01bc 394d 19bc e650 563d d19c fc3c
00000010: c9ab 1bbc 1ffb d83c 5f9e 023c 7828 d33c
00000020: 74f8 313b 7236 613d 7a21 76bd be0d c23d
00000030: 8d6d 75bd e6c8 a43d fea1 acbc 9562 dfbd
00000040: 6465 263d 1cdc 843d 241d e5bd 1509 cfbd
00000050: cfe7 463d 3780 02be 68c7 dd3c a044 e33d
00000060: 0c6c 9ebd 3a48 bc3d 6605 58bd 664d c7bd
00000070: a3a4 c03d bf47 f23d dbdd 7dbd f8cd 6cbd
00000080: 6968 143d a504 05bd 9124 5abc e505 99bd
00000090: 5ece 41ba 2ee0 2cbd 9f4a eebd 87ad 8c3d
000000a0: 9779 463d ee81 d83c 04a2 94bd c35b 39be
000000b0: d173 473d 171a 2f3d dbfe 14bd f3c8 8cbc
000000c0: ece1 5a3d c280 96bd 1bef 973d d2bc 52bd
000000d0: 54d9 0fbc 5b79 f1bb ea6c b7bd 62c2 11bd
000000e0: 1456 b7bc 0621 08bc 0ac8 b9bd 894d 48bd
000000f0: 8fee 86ba b91e 4b3d d593 f9bc 14fe f63b
00000100: 84e2 e5bd 6734 3f3d 756f a4bd 0a4d bebc
00000110: 4601 63bd b7e3 873c f66b a3bc 95f1 5dbd
00000120: 6c01 943d b995 253c bcdc 10bd 43d1 b6bc
00000130: 411d 243e e295 f83c a6e7 c53d 1ff0 a53d
00000140: 02d8 b2bd a587 d5bd 778e 9b3d 814f 283e
00000150: 7870 1cbc 2d40 cd3d 4bf8 6c3d c394 5a3d
00000160: 972b 05bb de48 613c 1a0e aabd b8b2 893a
00000170: d700 023d 152a 9cbd 86b2 743d 2797 4d3d
00000180: be90 eabc 46e9 dd3b 3fb5 1f3d 240f 633d
00000190: 4874 e8bc 177f 48bd 2f55 623c 4e0e b1bd
000001a0: bb5b e33d 4a2e 09bd 1e15 b93d 3fbb 06bd
000001b0: 4ac3 953d 3ff0 59bc ae06 a1bc 0150 b03d
000001c0: d8bd cabc 5a65 af3c 517c ef3c ad8f fdbc
000001d0: 2cf0 e3bd 1211 d83d 69be cc3d 01fb 20bd
000001e0: 4baa 25bd 2398 133c c267 ed3b de59 f33c
000001f0: bf4c 54bd 9a01 f6bc 43b4 ad3d 4bf1 24be
00000200: ea88 9c3d 01ab 343d ae20 933d ff0a a2bc
00000210: d26b e3bc 2e87 523d 03b1 a33d 6a6c 133b
00000220: eaaf 59bb 360a 1f3d ab26 9bbd 80ae d0bd
00000230: 4824 353d 3148 ae3d b103 b4bd cd6c 14bd
00000240: cfb1 7bbc 9d20 55bd c570 f9bb 857f a03d
00000250: e971 1fbd eaf7 adbc 2397 873d aa15 90bc
00000260: 22d8 303d 3be9 4ebd 7185 703d 83b7 413d
00000270: 340c e2bd e3a0 5abd a5b8 d73d 390b 61bd
00000280: bae4 583d fd7a 303c 06f9 c13d 7ef7 643d
00000290: 71c7 3a3d be60 3e3d 4699 b7bd b24e 8c3d
000002a0: ca86 7c3d bea4 4d3d 7205 dabc e786 7d3d
000002b0: d0f0 dcbc 47fa 28bd f21c ec3d 2d24 ab3d
000002c0: 3110 60bd 07c1 113d 6edb 28bc c94d cd3d
000002d0: 83e1 c53d f2ca 0c3d 325f 233d faf8 843b
000002e0: 00c2 fe3c 73ce 7b3c e05e 95bc 47d2 4a3d
000002f0: 8bc5 09bd 70f6 f83d 3771 5fbc ec79 9e3d
00000300: 9903 c43c b798 79bc 80a4 29bd 3234 27bd
00000310: 52ca 9b3d e1d1 7a3d 7f15 8fbd b165 273d
00000320: 46bd 043d b68a 073b 18b9 93bd 8d84 b4bc
00000330: b198 793c f891 66bc e3fb bb3d a897 78bb
00000340: 55a5 fd3d 34fe 303e 8502 a7bd 8e61 6f3d
00000350: 61f5 9a3d 9403 fdbd b0c6 2cbe 4382 8dbd
00000360: 0ab9 123d 02cc c7bc 1e93 233d 5565 b9bd
00000370: 2cd0 943b a12a 9ebd 7fa6 303d 3f2e ca3d
00000380: b1c0 ccbd f994 1cbd d00c b73d 940c 823c
00000390: d782 27bb 13de 00bd d0fb a4bd 00c9 f8bd
000003a0: a0df d33b e828 ad3d 23bf a8bd 4b4c dcbc
000003b0: 8477 94bd b049 043d 4fd8 393d 2456 df3c
000003c0: 47dd 933d 8e23 39bd da54 833d 4dbe 753d
000003d0: 6de9 c5bd 214c 81bc 6869 b83d 0cf5 93bd
000003e0: 12fd 5e3a 223a 8a3d eecb 963b e238 fc3d
000003f0: 61dd 8f3d a42a 993d 3bcf 90bd f7e5 d5bc

_model.1._model.0.bias f4 [256]
0.008026611 0.007937645 0.0052465457 0.007836037 -0.0028999108 0.011063829 0.0071835243 0.010167136
0.016533542 -0.0027485138 0.013400984 -0.0010787455 0.019332439 0.019014342 0.00693456 -0.00078132725
0.0063174223 0.0034483578 0.0049308785 0.00816184 -0.013124205 0.0035016518 0.0028157681 0.0007078077
-0.0026719419 0.0016576214 0.011004847 0.009465777 0.010394457 -2.0520815e-06 0.005626841 0.006339912
-0.0033897446 -0.0010405409 -0.002662341 0.0024585694 0.019508675 -0.0068925563 0.013703356 -0.0036621876
-0.0004455106 -0.0019556216 0.0021635143 0.012011227 0.002396353 -0.0042050364 -0.00082560815 -0.00046170768
-0.007912877 -0.0018667008 -0.006529828 0.010404032 -0.002596848 0.0011590245 0.0129584465 -0.0018295939
0.011763699 0.0018350382 -0.000783832 0.0035744633 0.0067026066 0.009026383 -0.004761859 0.006434034
0.0031631321 -0.008536531 -0.00034838164 -0.005043945 0.005716239 0.018722171 0.004499857 0.012294032
0.005589669 0.0064474037 0.008221112 0.012644143 0.0033239585 0.009448236 0.0021621492 -0.002731149
0.03565367 0.012810596 0.0074955057 0.026177553 0.016233744 0.0069247745 -0.0042987396 -0.0063972967
0.0028624984 0.013651986 0.012093512 -0.0018026888 -0.001787247 0.018183412 0.005984076 -0.0011136981
0.007887881 0.002715898 0.0022923215 0.00016925407 0.022143349 0.0048587294 -0.013481995 0.006211235
0.003037957 0.011510565 0.011821136 0.004323767 0.009903158 -0.0002521459 0.0053897863 0.0027977757
0.007847718 0.006817239 0.0014938983 0.019798167 0.014285824 0.016687518 -4.5288518e-05 0.004889365
0.003505298 0.0084111085 -0.0027516228 0.0047234986 0.0106940875 0.016452884 0.0008286214 0.00036686423
0.008443215 -0.00029329097 0.00977703 0.008244929 0.0068673748 0.0019634415 0.003569781 0.0046029394
-0.0044862656 -0.0049546664 -0.010126039 0.001958706 0.007363678 -0.0028597547 -0.0013043893 0.0014050866
0.015195822 -0.0026506395 0.008071242 0.0053176885 0.003742696 0.009566053 0.0013576576 0.009187504
-0.005682567 0.021090852 0.020158753 0.016614242 0.011106852 0.009765055 0.026369523 0.00864592
0.012875878 -0.006874532 0.01158043 0.010882499 -0.00023875246 0.008721781 0.0026819117 -0.0023498589
0.006137859 0.0012931206 -0.00766148 0.021365294 0.0075145974 0.0045978124 0.00791594 0.005189113
0.002066039 -0.0025889368 0.0075346413 0.0030152837 0.009925056 0.0055590305 0.002498185 0.0128647145
0.0020923323 0.012529784 -0.00086024817 0.008224476 -0.0063290778 -0.0056636385 -0.0055326917 -0.0033660813
0.0050650868 -0.007706379 -0.009279818 0.006471007 0.01057004 -0.0023097864 -0.0006506229 -0.006732789
0.009300388 -0.005263354 -0.0018351173 -0.009266619 0.009364602 -0.011060963 0.0073212245 0.0010637891
0.023137534 -0.002075043 -0.012691084 -0.0015518079 0.0012553667 0.0023847725 0.007093982 0.006023703
0.012582399 0.0057805884 0.007398626 0.001213503 0.014888845 0.013272602 -0.004539699 0.0045081624
-0.0043506697 -0.002412107 0.008993354 0.013016999 0.011003659 0.008582296 0.0011827103 -0.008068051
0.0029277592 0.0046197367 0.009113792 0.003398978 0.0029864952 -0.0068608937 -0.003155987 -0.0018878503
0.0001220217 0.0010750833 -0.006300935 0.009790248 0.0042642285 0.006596324 0.009429246 0.0036895422
0.003484384 -0.0055325083 0.0001674964 0.008517195 0.0061877305 -0.0048226095 0.010893216 -0.0030454043
00000000: 0c82 033c e50c 023c 37eb ab3b b962 003c
00000010: 6e0c 3ebb 1045 353c c563 eb3b 0f94 263c
00000020: 5a71 873c 6920 34bb cd8f 5b3c b164 8dba
00000030: 105f 9e3c f7c3 9b3c 4e3b e33b fcd1 4cba
00000040: 6102 cf3b d8fd 613b 3593 a13b 3db9 053c
00000050: e806 57bc f87b 653b c088 383b 2c8c 393a
00000060: bf1b 2fbb 8b44 d93a ac4d 343c 5916 1b3c
00000070: 834d 2a3c 7eb6 09b6 5d61 b83b 09bf cf3b
00000080: 7a26 5ebb c262 88ba ac7a 2ebb f31f 213b
00000090: a8d0 9f3c f4da e1bb 0a84 603c 5001 70bb
000000a0: 6c93 e9b9 e329 00bb bfc9 0d3b bdca 443c
000000b0: 220c 1d3b 67ca 89bb a06d 58ba 5b11 f2b9
000000c0: 03a5 01bc 16ac f4ba 2bf8 d5bb ac75 2a3c
000000d0: e12f 2abb 69ea 973a aa4f 543c fcce efba
000000e0: 88bc 403c aa85 f03a 137a 4dba 8b41 6a3b
000000f0: 8aa1 db3b 65e3 133c 5e09 9cbb 97d4 d23b
00000100: 8d4c 4f3b cedc 0bbc fea6 b6b9 ad47 a5bb
00000110: 4a4f bb3b 3d5f 993c 8973 933b e86c 493c
00000120: 8b29 b73b be44 d33b d8b1 063c 6129 4f3c
00000130: c5d6 593b c6cc 1a3c d8b2 0d3b 14fd 32bb
00000140: 9509 123d 89e3 513c dc9c f53b 4f72 d63c
00000150: a1fc 843c 38e9 e23b 71dc 8cbb 6aa0 d1bb
00000160: c198 3b3b 94ac 5f3c de23 463c 3348 ecba
00000170: 0f42 eaba 61f5 943c 1116 c43b 82f9 91ba
00000180: 2c3c 013c 35fd 313b c63a 163b cb79 3139
00000190: f865 b53c fa35 9f3b 96e3 5cbc 9e87 cb3b
000001a0: 7618 473b cf96 3c3c 70ad 413c 63ae 8d3b
000001b0: db40 223c 7332 84b9 ce9c b03b e35a 373b
000001c0: b793 003c 2563 df3b e9ce c33a c42f a23c
000001d0: 170f 6a3c 43b4 883c 2df4 3db8 f736 a03b
000001e0: 24b9 653b bfce 093c 9254 34bb 94c7 9a3b
000001f0: 4136 2f3c 33c8 863c d737 593a af57 c039
00000200: 6955 0a3c d9c4 99b9 d62f 203c bd15 073c
00000210: b707 e13b 15ad 003b fdf2 693b 41d4 963b
00000220: 8601 93bb c15a a2bb b0e7 25bc a25d 003b
00000230: 024b f13b b96a 3bbb 0bf8 aaba e22a b83a
00000240: e6f7 783c 5ab6 2dbb 3e3d 043c 0140 ae3b
00000250: 0548 753b efba 1c3c 6ef3 b13a 2f87 163c
00000260: d434 babb b9c6 ac3c f823 a53c 971a 883c
00000270: 84f9 353c 9cfd 1f3c e604 d83c 9ea7 0d3c
00000280: 59f5 523c c143 e1bb d8bb 3d3c 824c 323c
00000290: a059 7ab9 cde5 0e3c 03c3 2f3b 1700 1abb
000002a0: 1820 c93b ed7d a93a 270d fbbb 4506 af3c
000002b0: 033d f63b 3fa9 963b dcb1 013c 6f09 aa3b
000002c0: 6266 073b 27ab 29bb 27e5 f63b 119c 453b
000002d0: b49c 223c 8728 b63b 97b8 233b 86c6 523c
000002e0: 831f 093b b949 4d3c 4782 61ba f4bf 063c
000002f0: 2764 cfbb 0b96 b9bb 954b b5bb 7999 5cbb
00000300: 07f9 a53b cb85 fcbb 610a 18bc be0a d43b
00000310: f62d 2d3c c95f 17bb 908e 2aba ba9e dcbb
00000320: a860 183c 3778 acbb 5288 f0ba 04d3 17bc
00000330: fd6d 193c 0b39 35bc e2e6 ef3b d76e 8b3a
00000340: ed8a bd3c 72fd 07bb 44ee 4fbc 0866 cbba
00000350: 1e8b a43a d849 1c3b a274 e83b 7c62 c53b
00000360: 6826 4e3c 176b bd3b 2c70 f23b 670e 9f3a
00000370: 58f0 733c 5475 593c c1c1 94bb 35b9 933b
00000380: 1090 8ebb 7114 1ebb dc58 133c 4045 553c
00000390: b148 343c c29c 0c3c 2c05 9b3a dc2f 04bc
000003a0: a6df 3f3b 2961 973b 0452 153c 63c1 5e3b
000003b0: 13b9 433b 59d1 e0bb add4 4ebb bf71 f7ba
000003c0: e7e5 ff38 cfe9 8c3a 1378 cebb 4767 203c
000003d0: f1ba 8b3b fa25 d83b 207d 1a3c 3fcc 713b
000003e0: 435a 643b 0b4a b5bb f9a1 2f39 b48b 0b3c
000003f0: 72c2 ca3b fb06 9ebb 7679 323c 6895 47bb

_model.2._model.0.weight f4 [60, 256]
0.007659614 0.0029971374 0.013396763 -0.014197603 0.012235607 0.008176858 -0.00034408097 0.004586001
-0.013978529 0.00043334728 -0.007160113 -0.0016139866 0.0013332503 -0.012776679 -0.032222085 -0.0029563059
-0.021182064 -0.011804236 -0.0035536077 0.010542931 0.0069035767 0.006847773 0.00893113 -0.01492956
7.9449674e-05 -0.007665325 -0.014163342 -0.016265599 0.00162225 0.0044159563 -0.007892148 0.010348655
-0.01483413 0.0033908826 -0.0005095008 0.020362372 0.008649687 0.014939223 0.01709568 0.01867246
-0.010611311 0.008242656 0.005792933 0.0043376014 0.0037415924 -0.005435429 -0.006186593 0.0069594127
0.0013050665 -0.0026758027 0.0043032616 -0.0041651423 -0.0025845862 -0.012830724 -0.0075189774 0.024726104
0.016491607 -0.017012885 0.01691501 0.008326804 -0.020161495 0.011135472 -0.0059207487 -0.004647087
-0.009587335 0.019058738 -0.0094661275 -0.01687126 -0.0036698158 0.018428404 0.022819418 -0.01663003
-0.003389027 0.01565086 0.007828248 -4.0788724e-05 -0.006598669 0.00084087823 0.00066846807 0.0104383305
-0.037629556 0.0050552054 -0.010960313 0.006492243 0.008452646 -0.010618925 -0.0031138442 0.010719327
0.009671437 -0.0023401387 -0.012686754 0.007436676 -0.0018010945 0.00390275 0.00090148055 0.01064889
-0.012297902 0.014037219 0.004872071 -0.003184228 -0.0048594386 -0.0035179374 0.004503844 0.011339893
0.010515764 -0.017947225 0.002522015 -0.012707085 -0.013420768 -0.0014468066 0.0034714027 -0.013817204
-0.0046137483 0.0012644123 0.016577901 -0.005346574 -0.00473266 0.017156553 -0.005051181 -0.011810227
0.008867892 -0.006824992 -0.0038801392 0.0071822386 0.0011686959 -0.0055738175 0.01555412 -0.02111791
-0.016138 -0.008883725 0.013048055 0.010971676 -0.0017969089 -0.0073117707 -0.003956513 0.0053410246
0.022275988 0.0091461 0.0021171719 0.0044106646 -0.008581741 -0.008275029 -0.018304743 -0.0040451675
-0.024114793 -0.009524259 -0.0072517623 0.009338623 0.013468442 -0.0012835482 0.0036516367 0.005659106
-0.013392076 -0.009721866 0.0056290748 -0.002702976 0.006382113 0.0030181499 -0.00069371046 -0.015220928
-0.0007586872 -0.008298265 -0.02687287 0.014913322 -0.002867757 0.0071109687 -0.004440417 0.007729029
-0.0042950967 0.012562739 0.010129223 0.0067249397 0.006751711 -0.008177943 0.009994788 -0.0031468715
0.023064842 0.010773408 0.015687222 -0.009040583 -0.015933074 -0.026594287 0.01048162 0.0013988487
0.031690717 0.010922388 0.006745648 -0.016911058 -0.0011478997 -0.009225573 0.0061178706 0.011316254
-0.0021402596 0.0027462654 -0.001475363 -0.0019525896 0.010341769 0.014707492 0.01382191 0.0024274886
-0.009846828 -0.02565807 0.004666879 0.020069055 0.017649675 -0.004457987 0.0059628086 -0.00821478
-0.008460848 0.0015042247 -0.006303991 -0.01580257 0.0017312567 0.009214229 -0.0012448848 0.014909703
0.007225319 -0.01171639 0.010586382 0.0048788227 -0.011355758 -0.0114025315 0.011172446 -0.010891967
0.017695533 -0.015051648 -0.019321656 -0.0061070393 -0.021376781 -0.0064633926 -0.014538027 0.021614544
-0.013279603 -0.011240598 -0.01831499 -0.0016838977 -0.011438654 0.014901698 0.02794226 0.018793492
0.016680103 0.015229513 0.0011116214 0.003053159 0.0004303464 -0.009990081 -0.012178993 -0.0030153957
0.001868702 0.008856173 -0.011074992 -0.019675378 -0.014588193 -0.018402442 0.004813605 -0.023232227
00000000: 80fd fa3b 9f6b 443b 197e 5b3c 109d 68bc
00000010: db77 483c 3af8 053c c465 b4b9 2a46 963b
00000020: 3306 65bc e332 e339 629f eabb 678c d3ba
00000030: 75c0 ae3a 4755 51bc 4efb 03bd 95be 41bb
00000040: 0286 adbc 8e66 41bc a5e3 68bb 42bc 2c3c
00000050: 6637 e23b 4963 e03b e053 123c 1d9b 74bc
00000060: 389e a638 682d fbbb 5d0d 68bc 6f3f 85bc
00000070: ada1 d43a bab3 903b 114e 01bc 688d 293c
00000080: da0a 73bc 9239 5e3b 0590 05ba fdce a63c
00000090: 6bb7 0d3c a5c3 743c 3d0c 8c3c fdf6 983c
000000a0: 10db 2dbc 340c 073c a5d2 bd3b 7022 8e3b
000000b0: 8135 753b af1b b2bb e7b8 cabb c90b e43b
000000c0: c40e ab3a 855c 2fbb 6002 8d3b bf7b 88bb
000000d0: 2962 29bb f537 52bc c161 f6bb 668e ca3c
000000e0: 6819 873c 9b5e 8bbc 5991 8a3c 266d 083c
000000f0: b829 a5bc 8e71 363c d702 c2bb 9746 98bb
00000100: 3314 1dbc 1221 9c3c d117 1bbc 9935 8abc
00000110: 4b81 70bb 2af7 963c caef ba3c b33b 88bc
00000120: 701a 5ebb 3b36 803c 0d42 003c 8f14 2bb8
00000130: a639 d8bb 626e 5c3a 223c 2f3a 8805 2b3c
00000140: 7321 1abd 23a6 a53b e292 33bc e2bc d43b
00000150: f87c 0a3c 00fb 2dbc a311 4cbb 1ea0 2f3c
00000160: f274 1e3c 035d 19bb 1adc 4fbc 5caf f33b
00000170: b412 ecba 48c5 7f3b 5651 6c3a af78 2e3c
00000180: 247d 49bc 5dfc 653c e5a5 9f3b 7bae 50bb
00000190: ed3b 9fbb 328d 66bb fb94 933b f5ca 393c
000001a0: 504a 2c3c 0f06 93bc 6448 253b 6131 50bc
000001b0: c8e2 5bbc c6a2 bdba 7980 633b 8e61 62bc
000001c0: ed2e 97bb a3ba a53a 61ce 873c 5032 afbb
000001d0: 6e14 9bbb e68b 8c3c 6184 a5bb af7f 41bc
000001e0: a34a 113c 2fa4 dfbb ef49 7ebb fc58 eb3b
000001f0: ed2e 993a 92a4 b6bb b5d6 7e3c 78ff acbc
00000200: d733 84bc 0b8d 11bc 82c7 553c 8bc2 333c
00000210: 4286 ebba 9497 efbb a3a5 81bb c303 af3b
00000220: 227c b63c 86d9 153c 40c0 0a3b 5687 903b
00000230: 6e9a 0cbc fd93 07bc d4f3 95bc 538d 84bb
00000240: 638c c5bc a30b 1cbc 31a0 edbb 0601 193c
00000250: bdaa 5c3c bb3c a8ba 4c50 6f3b 0670 b93b
00000260: 706a 5bbc 7648 1fbc 1a74 b83b 6a24 31bb
00000270: 0b21 d13b 27cc 453b 1fda 35ba 3361 79bc
00000280: a3e2 46ba 72f5 07bc 7e24 dcbc 0257 743c
00000290: fbf0 3bbb 2103 e93b eb80 91bb cb43 fd3b
000002a0: e2bd 8cbb f2d3 4d3c 0af5 253c e25c dc3b
000002b0: 753d dd3b c7fc 05bc 2ec1 233c be3b 4ebb
000002c0: 7bf2 bc3c f382 303c 7d82 803c f41e 14bc
000002d0: 1486 82bc 43dc d9bc 1abb 2b3c 9359 b73a
000002e0: 20ce 013d d1f3 323c 990a dd3b 0f89 8abc
000002f0: 1f75 96ba dc26 17bc 6b78 c83b cf67 393c
00000300: 9943 0cbb b0fa 333b f860 c1ba 09ee ffba
00000310: 8670 293c b1f7 703c 4b75 623c 8016 1f3b
00000320: 9754 21bc df30 d2bc 9eec 983b dc67 a43c
00000330: 0d96 903c 4e14 92bb aa63 c33b 4997 06bc
00000340: 5e9f 0abc 6829 c53a b691 cebb 6474 81bc
00000350: 56eb e23a 47f7 163c 672b a3ba d447 743c
00000360: 5ec2 ec3b 1af6 3fbc 8172 2d3c 88de 9f3b
00000370: 800d 3abc afd1 3abc a30c 373c 3974 32bc
00000380: 39f6 903c 309b 76bc 7348 9ebc 8f1d c8bb
00000390: 5c1e afbc deca d3bb e830 6ebc fc10 b13c
000003a0: b192 59bc 7c2a 38bc 5109 96bc 3bb6 dcba
000003b0: 3169 3bbc 4026 743c 2be7 e43c cff4 993c
000003c0: b6a4 883c 3585 793c d3b3 913a 8217 483b
000003d0: 1ea0 e139 70ad 23bc 668a 47bc f29d 45bb
000003e0: 3cef f43a 7b19 113c e273 35bc 422e a1bc
000003f0: 5103 6fbc b8c0 96bc 72bb 9d3b 8351 bebc

_model.2._model.0.bias f4 [60]
-0.0068104174 0.0022622938 -0.0030900438 -0.0035924218 -0.0026640652 -0.0008254329 -0.0032740969 -0.0010315556
-0.0043434054 -0.005229802 -0.002346768 -0.0026657686 -0.0038863358 -0.003616169 -0.0016337279 -0.0052744853
0.0019812244 0.00097345014 -0.0012474246 0.0018888846 -0.00043925398 -0.0035987285 0.002433944 0.0017422616
0.006918604 0.0006916718 -0.0075399796 0.0017049179 0.0048959283 -0.00316707 -0.006162588 -0.0038944446
-0.004413319 -0.005090723 -0.0063703447 -0.007857977 -0.0011597115 0.0016285687 -0.0012238373 0.0015594739
-0.00033091166 -0.005719545 -0.015573236 0.0003686784 -0.0015800825 -0.004452135 -0.0024716652 0.0028878849
0.004095698 -0.0052073183 0.0024592213 -0.009591868 0.011939351 0.009347424 0.003503612 -0.00088512246
0.0032247675 -0.0008507639 -0.00042933368 0.0019978515
00000000: ec29 dfbb fe42 143b 5582 4abb d66e 6bbb
00000010: 9997 2ebb dd61 58ba 3b92 56bb 4335 87ba
00000020: 2053 8ebb c25e abbb 3ccc 19bb 2db4 2ebb
00000030: e5b1 7ebb 40fd 6cbb d022 d6ba 97d5 acbb
00000040: 6ed7 013b 222f 7f3a a080 a3ba 7394 f73a
00000050: ac4b e6b9 a5d8 6bbb ce82 1f3b 995c e43a
00000060: 75b5 e23b 4f51 353a ef11 f7bb 8d77 df3a
00000070: 066e a03b 9e8e 4fbb 89ef c9bb f039 7fbb
00000080: 9a9d 90bb 14d0 a6bb 53be d0bb bfbe 00bc
00000090: 7601 98ba b375 d53a 2a69 a0ba 4367 cc3a
000000a0: 367e adb9 056b bbbb e326 7fbc 2d4b c139
000000b0: c51a cfba 37e3 91bb a9fb 21bb ab42 3d3b
000000c0: 3435 863b 27a2 aabb e32a 213b 3627 1dbc
000000d0: 459d 433c f025 193c db9c 653b 9007 68ba
000000e0: 9f56 533b cd05 5fba 3118 e1b9 63ee 023b
